code/ch2_parameters.npz (npz, 7126 bytes, 4 tensors)

W_h (column-major) f4 [128, 2]
000000 fa 62 5a be e0 42 ca be 02 57 b8 be 98 1a 16 3e
       -0.21326819 -0.39504147 -0.36003882 0.14658582
000010 5f f4 21 bf 25 ce f2 bf ef 19 c0 be e1 ff 6a be
       -0.63263506 -1.896916 -0.37519786 -0.22949173
000020 a2 2b bc 3e 34 28 69 be 4c 49 e4 3b 63 8c 90 be
       0.3675204 -0.22769243 0.0069667455 -0.28232107
000030 e2 17 bb be 33 66 5f 3f 9d 41 e2 3e f7 20 d0 bc
       -0.3654166 0.8726532 0.44190684 -0.025406344
000040 52 93 87 3e a0 46 72 be 43 2a c3 be 17 5b 3f 3f
       0.26479584 -0.23659754 -0.3811818 0.7474837
000050 78 e4 d2 be 0a 0b c5 3c b4 4c 79 be b0 ea 2c 40
       -0.41189933 0.024053115 -0.24345666 2.7018242
000060 17 fd 92 3f ea e3 7a 3c fe 0a 0c 3e 21 3f af 3d
       1.1483487 0.015313128 0.13676068 0.08556963
000070 7c 0f b2 3e 07 63 71 be f5 a3 d7 be 92 1a 8c 3e
       0.3477744 -0.23572932 -0.42117277 0.27364022
000080 f7 3b 7d 3f d4 89 2c be f6 07 1f bf b6 b0 4e bf
       0.98919624 -0.16849452 -0.6212152 -0.8073839
000090 4c b2 cf 3e 05 fe e0 be 67 4f 80 be 07 e8 72 be
       0.40565717 -0.43943802 -0.2506058 -0.23721324
0000a0 08 84 72 be 45 fb a7 3e b9 0a d3 3e 18 28 f6 bd
       -0.23683178 0.3280889 0.41219118 -0.12019366
0000b0 c9 bc 07 3f ca b7 8b be dd af 73 3e 93 96 9c bd
       0.5302244 -0.27288657 0.23797555 -0.07645907
0000c0 5b ab fd bd 94 cb 08 be 8d 71 8a 3f 6c 6b 28 40
       -0.12386199 -0.13358909 1.0815903 2.6315565
0000d0 ac 2a c2 3d 31 ab 4c be 5c 6f 59 40 b6 3b 7c 3d
       0.09480795 -0.1998718 3.3974218 0.061580382
0000e0 1c 37 11 be 7c db dc be 5b 04 3b 3d 79 40 59 bd
       -0.14181179 -0.43136203 0.04565845 -0.05304
0000f0 0d ef bf be 1c 82 89 3f e5 a5 1b 3e 2a 2e cc be
       -0.3748707 1.0742831 0.15200002 -0.3987897
000100 a1 a6 9c be bf 9d db 3d 2b f0 fc 3d 4f 43 c5 be
       -0.30595878 0.10723447 0.12350496 -0.38527915
000110 88 45 0a 3e 26 85 a8 be 9d 4f 39 3f 9a b8 79 3f
       0.13503087 -0.32914084 0.72387105 0.97547305
000120 cc 2f 67 40 39 38 fe 3d 5a f5 bf 3e fd 86 13 3f
       3.6122923 0.12413067 0.37491876 0.5762785
000130 26 1d 92 be 62 88 bd 3e 23 95 18 3e e9 16 4f bd
       -0.28537863 0.37018114 0.14900641 -0.05055896
000140 aa 0e ad 3e 38 35 29 3e f0 e1 6e bf 7b d1 e5 be
       0.3380025 0.16524208 -0.93313503 -0.44886383
000150 93 d2 be be ff 2e 96 bc 21 7d 43 3e aa fd a8 3e
       -0.3727003 -0.018332956 0.19090702 0.3300603
000160 04 8b 1c 40 89 f8 20 be 3e 45 9f be ae 70 ed be
       2.4459848 -0.15719809 -0.31107515 -0.4637503
000170 50 ab 73 40 c5 67 6d 3d a9 ec e4 be bc 9e 7d 3e
       3.807331 0.05796029 -0.44711807 0.24767584
000180 db ac d2 3e ac ea 48 3d 7a 30 58 3f 20 8c df 3e
       0.41147503 0.049051926 0.8444897 0.43661594
000190 2b d8 a9 bf 8b 26 3c 3e 3f b3 cb be d7 3e 1d bf
       -1.3269094 0.18374078 -0.3978519 -0.6142401
0001a0 74 ba 8e 3e 28 de 0d be 00 3d 8f 3e a7 d5 75 3e
       0.27876627 -0.13854277 0.27976227 0.24007283
0001b0 d6 4d 07 bf 3f 24 25 3f b2 0c 95 be b6 0f 87 be
       -0.52853143 0.6450843 -0.29111248 -0.26379174
0001c0 bb 8e 00 bf e8 d7 a9 3f f5 7b a7 bc 17 00 cf be
       -0.5021779 1.3269014 -0.02044485 -0.40429756
0001d0 10 7a e8 be b5 43 d4 be b4 50 8f be 27 28 f9 3f
       -0.45405626 -0.41457906 -0.2799126 1.9465379
0001e0 dd 72 56 be 57 98 64 be 61 17 f2 be a2 ad bc 3d
       -0.20942254 -0.22323738 -0.47283462 0.09212805
0001f0 94 37 c5 3e 29 73 b2 be 35 a0 32 bf 29 2e 0b bf
       0.38518965 -0.34853485 -0.69775707 -0.5436731
000200 cc 31 c5 3e c5 df a7 be 4f 3e c9 3e 2b fc ac be
       0.38514555 -0.3278791 0.3930535 -0.3378614
000210 17 4d ef bc d8 93 17 bc 21 de a2 be a1 0e 96 3e
       -0.029211564 -0.009251557 -0.31810096 0.29308036
000220 b2 1f 8d 3e cc 18 8e 3f 49 d7 f8 be 25 56 d5 3e
       0.27563244 1.1101317 -0.4860175 0.41667286
000230 02 0e a6 be 24 6d 87 bf 08 62 c3 3e 56 46 15 bf
       -0.32432562 -1.0580182 0.3816073 -0.5831045
000240 6a 49 d1 3e c7 4b cb 3e c6 49 aa 3d fd aa 71 be
       0.40876323 0.3970625 0.083148524 -0.23600383
000250 15 1c 19 40 9c e5 bf be 79 ca c8 3e 8d 11 36 3f
       2.392339 -0.37479866 0.39216974 0.7112053
000260 c1 0c 81 bf e8 f8 cf be 45 dc b3 be fb 32 b9 be
       -1.0082017 -0.40619588 -0.3512899 -0.36171708
000270 47 49 a2 3d 74 93 98 3e 62 f2 c7 be 18 6c db 3e
       0.07924133 0.29799998 -0.3905211 0.42855906
000280 82 a6 20 be 7f 31 20 3f d2 95 f5 3e dc 2c a3 3f
       -0.15688518 0.62575525 0.47965866 1.2748065
000290 10 9a 27 3e ca 8d 14 40 71 93 9e 3e 7a c3 86 3e
       0.16367364 2.321154 0.30971864 0.26321012
0002a0 73 8e 08 3f 39 1e 7f 3e f5 c6 aa 3c 13 2a a7 be
       0.5334236 0.24913873 0.020846823 -0.32649288
0002b0 bd 22 f6 3c 59 f1 61 3e 26 8b a3 3e 41 98 5b 3f
       0.030045861 0.22064723 0.319421 0.85779196
0002c0 26 af 74 3e 0e c5 fa 3e 4a f3 46 3f 95 76 29 3f
       0.23894939 0.48978466 0.7771498 0.66196567
0002d0 31 1c ba be 27 0e d0 3e 5d bb 7f 40 18 1d 08 bf
       -0.36349633 0.40635797 3.9958107 -0.53169394
0002e0 70 a0 d8 3e 65 85 91 be 54 8a dd be 11 fb e7 be
       0.42309904 -0.28422084 -0.43269598 -0.45308736
0002f0 71 8f a2 be 7b b2 83 bf 08 22 05 bf 7f 78 92 be
       -0.31750062 -1.0288843 -0.5200505 -0.28607556
000300 cc 90 40 3e 13 59 e2 be b6 d8 a2 be dc ad 49 3f
       0.18805236 -0.44208583 -0.31805962 0.78780913
000310 d3 bf e2 be 98 1f eb 3e 1a e9 a5 bd c0 99 44 bf
       -0.44286975 0.45922542 -0.08101101 -0.76797104
000320 bf 76 ba be c4 a5 de be 8a 71 4a 3c 3a 57 b8 be
       -0.3641872 -0.43485844 0.012356171 -0.3600405
000330 67 fb a8 be 00 cb 90 3e a2 41 e8 be 0b 49 05 bf
       -0.33004305 0.28279877 -0.45362574 -0.5206458
000340 7f 1a a0 3c 60 89 be be fe da 99 bd 9a 79 5f be
       0.019543884 -0.37214184 -0.075124726 -0.21823731
000350 c8 08 9b be 24 05 a8 3e ec 7f 03 bf 55 63 22 3e
       -0.30280137 0.32816422 -0.5136707 0.15858205
000360 64 b1 c5 40 98 c8 19 3f 14 0f a6 be 35 c4 47 3e
       6.177904 0.60071707 -0.3243338 0.19508441
000370 28 74 55 3f b8 8e d2 be 8a 9f c1 bc 66 72 0e bf
       0.83380365 -0.4112451 -0.023635644 -0.5564331
000380 a3 77 2d bd c2 10 fd be 68 7d 53 bf 43 04 7c 3e
       -0.042350423 -0.49426848 -0.8261323 0.24611
000390 25 5d e4 bd f3 7c 04 bf 45 20 0c 3d 40 20 b5 3e
       -0.111505784 -0.5175316 0.034210462 0.35376167
0003a0 14 c1 95 3e 4b 3d 09 3f 5f b4 85 3e 8b 92 d9 be
       0.2924887 0.5360915 0.26114175 -0.42494616
0003b0 29 cb 71 bd 85 cd ee bd 67 e9 d4 3e 2f b4 8a 3e
       -0.05903164 -0.116602935 0.41584322 0.27090594
0003c0 d6 e2 21 be 3b 8e 8b bf 99 99 ff be a0 29 3b be
       -0.15809187 -1.090278 -0.49921873 -0.18277597
0003d0 66 6e ec bd 5e 7e 60 be 93 e7 d0 3e 4e ec 82 be
       -0.11544494 -0.21923205 0.40801677 -0.2557091
0003e0 cd 86 ac 3e f6 52 b2 3e 57 7b 8f 3e b4 29 ea be
       0.33696595 0.3482892 0.28023788 -0.45734942
0003f0 0c be 54 3e 11 5d b8 be e7 65 76 3f a8 bc d8 bd
       0.20775622 -0.36008504 0.9624924 -0.10582858

b_h f4 [128]
000000 7e ed 38 3f 4d 00 b4 3f 76 c8 90 3f 1c 42 86 3f
       0.72237384 1.4062592 1.1311176 1.0488925
000010 28 29 a2 3f 88 60 0d 3f f1 be cc 3f cf ca 78 bf
       1.266881 0.5522542 1.5995771 -0.9718446
000020 6b a7 8a bf d0 76 86 bf 5c 36 62 3f 62 db 9c 3e
       -1.0832342 -1.0505009 0.88364196 0.30636126
000030 15 59 b9 3f 41 fa ea 3f f1 58 cb bf 39 83 7b 3f
       1.4480311 1.8357621 -1.5886518 0.98247105
000040 2c 80 85 bf 9e 2c 92 3e b1 67 b1 3e c4 ac b3 3e
       -1.042974 0.28549665 0.34649423 0.35092747
000050 a0 d6 2e 3f 99 24 5c 3f ec e4 11 3f 5f de 04 3f
       0.6829624 0.85993344 0.5698993 0.5190181
000060 1a c4 3a 3f 5b 27 38 3f 2c dc 29 3f be 42 35 3f
       0.7295548 0.7193505 0.6635158 0.70804965
000070 6a 1a 41 be f0 05 67 be d7 67 e8 3f 02 4d c2 bf
       -0.18857732 -0.22560859 1.815669 -1.5179751
000080 6f a6 01 3f 88 f2 ad 3f 25 ea a2 3f 96 41 ec 3e
       0.5064458 1.358964 1.2727705 0.46143788
000090 ce 3f c6 3e 59 c2 5c 3f e0 05 0d bd aa b5 d8 be
       0.38720554 0.8623405 -0.03442943 -0.423261
0000a0 47 b6 b1 3f f1 dc 2f bf 5c 4c b4 bd b1 22 4d 3f
       1.3883752 -0.68696505 -0.08803627 0.8013106
0000b0 96 83 73 bf be 28 81 be 5a 2e 8d bf 72 c6 92 bf
       -0.9512266 -0.25226396 -1.102977 -1.1466811
0000c0 b6 73 d9 be 68 77 5c 3f 33 5f 17 3f 1c cf 3b 3f
       -0.42471093 0.861197 0.5912964 0.733629
0000d0 26 0b a6 3f 46 6d 1b 3f 88 1e 6b 3d 70 a4 12 3f
       1.2972152 0.60713613 0.057402164 0.5728216
0000e0 27 9e fc be cc 01 8c 3f 1b 53 9f 3f a1 55 b1 3f
       -0.4933941 1.0938048 1.2447237 1.3854257
0000f0 8c ab df 3f 62 19 c0 3f f5 97 89 3e ae 42 b8 3f
       1.7474227 1.5007746 0.26873747 1.4395349
000100 d8 f8 50 be 61 ea f5 3f d9 74 c6 3e cc ba 9f be
       -0.20407426 1.9212152 0.38761023 -0.31197202
000110 5f 78 99 3f eb 42 ac 3f 33 8b ac be d7 5f 2b bf
       1.1989859 1.3457922 -0.3369995 -0.66943115
000120 7d 3e f9 bd 2c 32 aa 3f c3 82 49 be fd 49 17 3f
       -0.12170122 1.3296561 -0.19678788 0.5909727
000130 35 10 89 3f 0f 40 83 bf b4 47 d7 3f 1e ab a5 3f
       1.0708071 -1.0253924 1.6818757 1.2942846
000140 ed bd d5 be 75 db 96 3f 1f e0 17 3f 21 93 44 3f
       -0.41746464 1.1785723 0.59326357 0.76787
000150 5e 5e b2 3f 85 cc 4d bf 27 fb e8 be d6 17 13 3e
       1.3935049 -0.803902 -0.45504114 0.14364561
000160 f0 3c 4d bf 72 1d b1 3f c2 bf 5f 3f 92 3a e6 3e
       -0.8017111 1.3837111 0.87401974 0.4496656
000170 7e c8 c3 3e 8f d1 c1 3f 92 48 1e 3e a3 b0 57 be
       0.382389 1.5142077 0.15457371 -0.21063475
000180 5d 1a c3 be c8 e5 9d 3f 6d a6 c3 3d b5 7c 97 bf
       -0.3810605 1.2335749 0.095532276 -1.1834933
000190 a5 c4 32 3f a2 64 78 3e 72 15 c0 3e 61 76 b4 3f
       0.69831306 0.24257138 0.3751636 1.4098626
0001a0 0f 19 8a bf 94 fd 86 3f a5 3e 2a bf 30 6c f3 3f
       -1.0788897 1.0546136 -0.6650184 1.9017391
0001b0 23 2e 9d 3f 21 ea c6 3c 7e e9 80 3f 68 5d 7e bf
       1.2279705 0.024281563 1.0071256 -0.99361277
0001c0 12 1a 81 3f 32 9d d7 3e d6 bb d3 3f ba 69 a7 3e
       1.0086081 0.42112118 1.6541698 0.3269785
0001d0 5e e8 02 3f 9c 76 83 3f 24 68 a0 3e c5 d1 37 3f
       0.51135814 1.0270572 0.31329453 0.7180446
0001e0 7e 82 27 3f ee e5 97 3e e0 13 94 3f a5 08 ce be
       0.6543349 0.2966761 1.1568565 -0.4024097
0001f0 b8 58 7f bf 7e 86 c2 3f 83 a8 57 3f 77 9b 8d 3f
       -0.9974475 1.5197294 0.84241503 1.1063069

W_o (column-major) f4 [10, 128]
000000 fa 8a b3 bc 18 bf 10 3b f1 cb cf bd 17 1c 69 3e
       -0.021916855 0.0022086557 -0.101463206 0.22764622
000010 be b4 c7 bf 4d e8 c8 bd 9a b6 b6 3e 0f 55 a9 bf
       -1.5602033 -0.09809933 0.3568619 -1.3229083
000020 64 bf 0b 3f 9c 64 a1 3e bc ba a7 bd 29 4f 1f 3f
       0.54588914 0.3152207 -0.08189914 0.62230164
000030 cf 81 30 3e 4a e1 a3 be ce 9f 54 bf c3 f1 7f 3e
       0.17237018 -0.3200782 -0.8305634 0.24994569
000040 a8 aa 35 bf 7b 37 47 3f 38 29 c4 3f 7d 3e d9 bf
       -0.70963526 0.7781903 1.5325079 -1.6972195
000050 12 ab 81 3b 05 ed 8a be fd d9 9f 3d be 75 aa 3e
       0.0039571607 -0.27133957 0.0780525 0.33292955
000060 17 f0 0f c0 9f a3 eb be f0 f8 50 3e 56 7c f5 3e
       -2.249029 -0.4602327 0.20407462 0.47946423
000070 52 e2 fa 3e bd 6a cc bd 3e 65 58 3d 5f bc 35 3d
       0.49000794 -0.09981296 0.052830927 0.044369098
000080 9c 00 86 3e 80 f9 39 bf be f1 36 3f 99 ee b1 3d
       0.2617234 -0.7264633 0.7146262 0.08688087
000090 ae 50 84 bf ea 1b 81 3f 58 87 80 c0 c6 44 88 bf
       -1.0337121 1.0086644 -4.0165215 -1.0645988
0000a0 d9 bb 45 bd ff 07 f7 3c 8d 99 fe 3e ef 25 07 3f
       -0.04827485 0.03015518 0.49726525 0.5279226
0000b0 a1 a5 1e c0 ef a3 aa bf 8c 7a 91 3e f8 53 0b 3f
       -2.4788592 -1.3331279 0.28413808 0.54425
0000c0 26 d5 bb 3e e7 ea 70 bf b6 18 b8 3e 82 e3 6f be
       0.36686057 -0.9410843 0.35956353 -0.23426631
0000d0 14 01 ea 3e 8c ec df 3e ec c9 18 c0 c5 2c f0 bf
       0.45703948 0.43735158 -2.3873243 -1.8763663
0000e0 2b 97 ca be 0c e4 f4 3e 2b 71 0b 3f af fb fe bf
       -0.39568457 0.47830236 0.54469556 -1.9920558
0000f0 bc 9c 4e 3e 7d 8d fb 3e 17 ea 85 3e f3 35 52 be
       0.20176977 0.49131384 0.2615516 -0.20528392
000100 bc 84 5a bf 8c 7b 9e 3e 61 2a 83 bf bc f9 33 3f
       -0.85358787 0.30953634 -1.0247308 0.7030294
000110 22 b5 ad 3f d0 9d f9 bf 36 45 6c be d7 1f c5 be
       1.3570902 -1.9501286 -0.23073277 -0.38500854
000120 59 f2 a5 be 26 eb dc 3e 40 66 80 bf c4 22 bc bd
       -0.3241146 0.43148154 -1.0031204 -0.091863185
000130 9a 67 d9 3e ed 9d 6d bf 3d 43 b5 3f 51 db b8 3e
       0.42461854 -0.928191 1.4161144 0.36104825
000140 3b d8 63 be b2 3f 24 bf f4 65 54 be b1 0f 84 3d
       -0.22250454 -0.6415969 -0.20742017 0.064483054
000150 dc 7b 87 3e ae 27 39 3d 8e 92 9e 3e e3 78 14 c0
       0.26461685 0.045203857 0.30971187 -2.3198783
000160 30 3f 33 c0 ec 54 a7 3e 2f a1 04 be ad 27 4f bf
       -2.8007317 0.32681978 -0.12952112 -0.80919915
000170 0e 11 c7 3e 5c 33 22 3e ca 2f d9 bf 59 e6 83 bf
       0.388802 0.15839905 -1.6967709 -1.0304672
000180 94 39 4a 3e 8b 1b 8f bf 7c af 8f 3e b3 e9 53 3d
       0.19748527 -1.118028 0.2806357 0.051736545
000190 ff 13 a5 be b1 54 03 3e e4 8f 04 3b a1 68 85 bf
       -0.32241818 0.12825276 0.0020227367 -1.0422555
0001a0 35 2c 23 3f 5f 72 ac 3e 11 4f 7a bf 4a f9 af 3f
       0.6373933 0.33681008 -0.97776896 1.3747952
0001b0 ca 1b 67 c0 99 af 19 bf a0 71 65 3e 60 2d cd be
       -3.611071 -0.60033566 0.22406626 -0.4007368
0001c0 1b 78 31 3e 0e d1 1f 3e b4 8f d2 bf ce 53 89 be
       0.17330973 0.15607092 -1.6450105 -0.2682175
0001d0 4d 6b bb 3d e3 c5 70 bf b0 bc 0e 3f fa 1d d8 3e
       0.091513254 -0.9405195 0.55756664 0.4221037
0001e0 5d 38 4d be ca bc 06 3f e4 f4 8b 3e f3 29 c8 be
       -0.20041032 0.5263182 0.27335274 -0.39094505
0001f0 96 48 70 bf 96 2b 44 3d ff 2c 72 bf 15 a9 45 3f
       -0.9386076 0.04789313 -0.9459991 0.77211124
000200 d5 71 d9 3f af 67 ee bf 00 f1 81 3e f6 34 0c 3f
       1.6987864 -1.8625392 0.2537918 0.5476831
000210 1a e2 40 bf b3 82 ed bd 4e e5 a2 3e 4c c9 a3 3e
       -0.75345004 -0.115971945 0.3181557 0.31989515
000220 78 36 2f c0 76 72 d9 be 4e 1d 59 c0 93 84 54 3f
       -2.7376995 -0.4247014 -3.3924136 0.8301479
000230 1d bb 9e be 24 90 7e bf 9d 6e ef be 68 cc 93 3e
       -0.3100213 -0.9943869 -0.4676408 0.28866887
000240 b8 72 15 3f 8b 92 ec 3d b6 23 0b 3f ab 60 c2 bf
       0.5837817 0.11551388 0.54351366 -1.5185751
000250 f8 eb 58 c0 ee 5f 07 3f 37 1a b9 bd b3 e2 a8 3e
       -3.3894024 0.5288075 -0.09038203 0.32985458
000260 43 37 5d bd dc a5 8b bf 99 ee 0f 3f 6b 62 ad 3e
       -0.05400778 -1.0909991 0.56223446 0.3386415
000270 b8 c7 3e bf df f7 08 3e ff 7e 96 c0 69 3f de bc
       -0.74523497 0.13375805 -4.7030025 -0.027129846
000280 a6 d4 a0 bd 91 ef 4d bf fa 59 9e be c7 13 c3 3e
       -0.078530595 -0.80443674 -0.30928022 0.38101026
000290 29 dd 8f 3e 85 1e 2b 3e 1d 4a 86 3d 9b b4 0d c0
       0.2809842 0.16710861 0.06557105 -2.2141483
0002a0 75 fb 27 bf 10 cd c1 3e c6 e0 95 3d 04 a3 c2 be
       -0.6561807 0.37851763 0.07318263 -0.38014996
0002b0 e5 1b 84 bc 5c ea 71 3e cb 46 cb bf 7c 5b 25 bd
       -0.016126582 0.23624557 -1.5880979 -0.04037045
0002c0 99 15 c8 3e 40 45 3d bf 5e 99 5d 3f 2b 31 60 3d
       0.39078978 -0.7393379 0.86562145 0.05473439
0002d0 13 14 92 be 63 6f bb bd 85 b8 1a bd 61 45 cb 3d
       -0.2853094 -0.09152105 -0.037773628 0.09925342
0002e0 8f ab d5 bf 99 3c 08 3e 95 e2 b2 3e a7 b0 2e 3f
       -1.669298 0.13304366 0.34938493 0.682383
0002f0 b6 a5 9f 3f cc cb f4 bd e5 88 9b 3e 77 4b 8d 3c
       1.2472446 -0.11952934 0.3037788 0.017247899
000300 d5 38 32 be 20 07 0d bf 0d 7b ed 3e 11 88 84 3e
       -0.17404492 -0.55088997 0.46382943 0.2588506
000310 73 e1 42 be e3 b1 21 c0 4b 88 c5 c0 2f a5 94 3e
       -0.19031315 -2.5264823 -6.1728873 0.29032275
000320 b4 b7 d3 3e bb 27 68 3e 3b 0c 7a be 44 eb 81 3e
       0.41351092 0.22671406 -0.24418728 0.25374806
000330 af ee e4 bf c1 af db bf 54 e6 e2 3d e5 85 22 c0
       -1.788534 -1.7163011 0.11079088 -2.5394223
000340 34 5c a0 3e 5f fc 96 3e ef b8 31 be d6 76 79 3d
       0.31320345 0.2948942 -0.17355703 0.060904346
000350 fb de 97 3e 04 f2 36 bf 0b 43 ee 3e 2c af 1f bd
       0.29662308 -0.71463037 0.46535525 -0.038985416
000360 cb 9e 5c bf 83 f0 95 3f 31 ad 56 c0 fd 27 44 bf
       -0.861798 1.1714023 -3.3543208 -0.7662352
000370 c3 06 9e 3d cc 7d e8 3b 9c 15 b1 bd 91 93 1f 3c
       0.077161334 0.0070950743 -0.086467 0.009739772
000380 24 43 9b bf 7a 4c 29 be d5 cd 9e 3e 0c 53 c9 bf
       -1.2129865 -0.1653308 0.31016412 -1.5728469
000390 fe d3 0f 3f 95 56 a9 3e 48 10 f6 3e 89 39 c1 3e
       0.5618285 0.3307387 0.48059297 0.37739208
0003a0 74 39 45 bf 7e cf 82 bf a8 d2 bf 3e 8f 5c 81 3e
       -0.7704079 -1.0219572 0.37465405 0.2526593
0003b0 4c 0b a3 3e 2b a1 bc bf 82 fc bb c0 b1 68 a0 3e
       0.31844556 -1.4736685 -5.8745737 0.31329873
0003c0 f0 ba 70 be 26 91 09 3e ac b8 b4 be 88 85 7b 3f
       -0.23508811 0.13434276 -0.35297143 0.9825063
0003d0 a3 b0 32 3e 8d f7 0c 3f da 5f 3e c0 2c 5d f2 bf
       0.17450194 0.5506523 -2.9746003 -1.8934684
0003e0 4d 3f a2 bf 18 02 85 3f e3 c5 a5 bd 65 23 04 3e
       -1.2675568 1.0391264 -0.080943845 0.12904127
0003f0 31 22 b0 3e 00 e7 35 bf ab 4d fe 3e aa d5 59 3e
       0.34401086 -0.71055603 0.4966863 0.21272913

b_o f4 [10]
000000 68 3b ae bd 65 bc 19 be cf 09 2e 3d 9d 89 98 3d
       -0.085074246 -0.15013273 0.042489823 0.07448123
000010 30 86 a7 3d 6a eb 56 3d 33 17 b3 3c d2 1b 7d 3a
       0.08179891 0.052470602 0.021861648 0.00096553296
000020 7f db 11 3e 78 28 ce 3d
       0.14243887 0.100663126
