code/Algorithm/fashion_mnist.pth (torch, 243143 bytes, 10 tensors)

conv1.weight f4 [6, 1, 3, 3]
000000 34 24 67 3e 1a f3 b3 3e 02 63 f7 3d ad cb 50 3e
       0.22572404 0.3514641 0.12079431 0.20390196
000010 a1 b4 43 3e 72 19 5b 3e 94 6c 98 3d 1f c6 3d 3d
       0.19111873 0.21396425 0.07442585 0.04633152
000020 6e 3f 80 3e bc ff d1 be 6d d0 f6 be ed 9b ea bd
       0.25048393 -0.41015422 -0.4820589 -0.11455522
000030 8f ea ef bc c2 a3 a9 3e 68 77 28 3c d2 cb cf bc
       -0.029286651 0.3313275 0.010282375 -0.025365744
000040 0c 9a f1 3e 76 07 cd 3e 96 17 db be c7 0e 09 bf
       0.4718784 0.40044755 -0.42791432 -0.53538173
000050 ac ce 3e be fb 65 51 be 2d 85 a4 be 51 21 19 bf
       -0.18633527 -0.20449059 -0.32132855 -0.5981646
000060 1e 4e 8d 3e 96 d7 24 be 31 ce a5 be 37 88 bd 3d
       0.2759866 -0.16097865 -0.32383874 0.092544965
000070 23 61 ab be ec ae 6b be cc 6e 8f 3e 6d 52 16 be
       -0.33472547 -0.23015946 0.2801422 -0.1467988
000080 ec 70 9e bd 2a d1 38 3e fb 2a 2b 3e fb cc a0 3c
       -0.07736382 0.1804854 0.16715614 0.019628992
000090 92 4c e2 3e 2a c2 ee bd 0e 85 ba 3e 80 63 93 3e
       0.44199044 -0.116581276 0.36429638 0.2878685
0000a0 b0 a2 f5 3e 82 69 d0 3e 6c 1b b3 3e ed 9e ad 3e
       0.47975683 0.40705496 0.3498186 0.33910313
0000b0 ef 24 f0 3e f3 d2 09 bf 74 83 66 bf 3b 58 bb be
       0.46903178 -0.5383751 -0.9004433 -0.36590752
0000c0 1a 33 41 bf 4a 5d 55 bf 0e dd 28 bf 31 e9 38 be
       -0.754686 -0.8334547 -0.659623 -0.18057705
0000d0 4c 92 ee be 91 a8 9b be
       -0.4659599 -0.30402043

conv1.bias f4 [6]
000000 a7 d8 22 3e ed 03 22 3e a5 f0 22 3e dc 0b 25 be
       0.15902959 0.1582181 0.15912111 -0.16117805
000010 34 ff 91 3d b7 98 01 be
       0.07128754 -0.12655912

conv2.weight f4 [16, 6, 3, 3]
000000 b0 2d 10 bd ac 55 92 3d b1 30 04 bd 34 10 b1 bd
       -0.03519982 0.07145247 -0.032273 -0.086456686
000010 65 cc e7 3d 72 bd 53 bd 16 e6 3a 3c 16 e7 fc 3d
       0.11318282 -0.05169434 0.011407396 0.12348764
000020 5a a6 fb bc 40 4f 09 3d 3a 20 8f bd 64 e5 dc bd
       -0.030718971 0.033522844 -0.069885686 -0.1078594
000030 b3 e6 95 bc 66 f7 76 3d 3b 99 29 be 9c 38 52 bb
       -0.018298483 0.06029453 -0.16562359 -0.00320772
000040 f4 b9 e1 bd 87 0b 05 be 99 38 1c 3e e9 e5 24 bd
       -0.11021796 -0.12992679 0.15255965 -0.040258322
000050 f3 5f 88 3b df 46 0b 3e 54 43 78 3e 0e e9 7c 3d
       0.0041618287 0.13601254 0.24244434 0.061745696
000060 d1 90 0e 3e f7 28 5e 3e a2 ec 3b 3e 57 33 f8 3d
       0.1392243 0.21695314 0.18351987 0.12119167
000070 5e 81 da bd 17 4a ea 3d 00 10 25 bc f8 24 79 3d
       -0.10669206 0.11439913 -0.0100746155 0.06082627
000080 fa 7d 85 bd d2 87 a4 3b e8 bb a5 bd 19 c3 f7 3d
       -0.06518169 0.005021074 -0.08092481 0.12097759
000090 79 07 82 3c 26 36 19 3d 8c 69 1a bd 7b 03 02 bd
       0.015872704 0.037405156 -0.037698314 -0.0317416
0000a0 37 dd 1e 3e 3a 76 81 3d 0d 6e a5 3c e5 e8 cd bd
       0.15514074 0.06321378 0.020194078 -0.10054187
0000b0 a0 23 00 be b3 18 e9 3d 0d 2d 6e 3e 02 03 1a 3e
       -0.1251359 0.11381664 0.23259373 0.1504021
0000c0 62 17 9e 3e 4f cd 7c 3e 6e 46 7d 3e f3 df 60 3d
       0.30877215 0.24687694 0.24733898 0.054901075
0000d0 3a b4 9e 3e fa 9b b3 3e 7f e9 2a be 0f 76 90 3b
       0.30996877 0.35079938 -0.16690634 0.004408605
0000e0 b1 43 f7 3d 36 7e 39 be 2f 42 75 3d 98 39 9f 3d
       0.12073458 -0.18114552 0.05987757 0.07774657
0000f0 31 4a 4b 3d d9 dd d2 3d ab 67 19 3e 19 a4 4d 3c
       0.0496313 0.1029622 0.14980952 0.012551331
000100 81 22 76 3e 3a 6a e8 3d b4 56 59 3e ad cd 93 3e
       0.240366 0.11348386 0.21224481 0.28867856
000110 68 e9 37 3e d4 a3 87 bc 39 64 73 3e c8 6c 0a bb
       0.17960131 -0.016557612 0.237687 -0.0021121968
000120 b9 4b a7 3e 6c f4 13 3e 0a 81 a6 ba b0 ea 82 3e
       0.3267496 0.14448708 -0.0012703252 0.25569677
000130 95 dc cd bd 7c 62 1b 39 3e 77 55 3e 5f 18 0d be
       -0.10051838 0.0001481864 0.20846269 -0.13778828
000140 40 87 92 bd c6 45 53 3e 2a 9b 57 3c 45 f9 d9 3d
       -0.07154703 0.20632085 0.013159553 0.106432475
000150 c5 0f 81 3c e0 0b 98 bc 23 e1 9f 3d 9c 44 ac bd
       0.01575459 -0.01856035 0.07806613 -0.08411524
000160 d3 5f b6 3d 07 f0 ca 3d 5e a1 b8 3c 35 5c 0f 3e
       0.08904996 0.09909063 0.022537883 0.14000018
000170 9b 06 b4 3d 36 13 6c be 68 45 92 3d b7 75 0c 3d
       0.087903224 -0.23054203 0.071421444 0.03429195
000180 d3 80 54 bd 50 7c 38 3d 12 c6 eb 3b ec 72 03 3f
       -0.05188067 0.04504043 0.0071952427 0.5134723
000190 1e 42 3d 3e 08 69 37 be ad bf b2 3e 3e 4c 24 be
       0.18482253 -0.1791116 0.34911862 -0.16044709
0001a0 9f da d8 be 0e 5b 4b 3e 18 5b a2 be d9 66 d5 be
       -0.42354295 0.19858953 -0.31710124 -0.4168003
0001b0 7c 01 40 bd 61 19 9f bd db 8c 77 bd d9 59 4b 3d
       -0.046876416 -0.077685125 -0.060437065 0.049646232
0001c0 8d fe d7 bb 29 86 89 3c 14 87 c5 3d 71 13 d5 3d
       -0.006591624 0.016787605 0.09644905 0.10404099
0001d0 a5 46 2b 3c 39 c7 64 3d a1 a1 51 3d 0f a6 3e bd
       0.010453855 0.055854056 0.051179532 -0.046545085
0001e0 d9 6f ac bd 22 90 dd bd 78 76 2e 3d c6 ec c6 bd
       -0.08419771 -0.10818507 0.04259345 -0.0971313
0001f0 70 25 f4 bb 60 97 a6 3d 5d cf 0b be f6 a0 a5 3d
       -0.007450752 0.08134341 -0.13653322 0.080873415
000200 f8 2c 09 3e 80 78 d6 bd 34 0c b2 3d a1 ed fb bd
       0.1339606 -0.10472202 0.08693734 -0.123011835
000210 c5 ef 5f 3d df f1 3a bd f3 d6 67 bd 9d 1e 70 3d
       0.05467202 -0.045640822 -0.056601476 0.058622945
000220 45 48 c7 3d cd f1 41 bd 40 31 cb 3d 9d 28 8c ba
       0.09730581 -0.04734974 0.09921503 -0.0010693256
000230 44 1e 05 3e 7d e5 04 be a2 ab 8d 3d eb 2d 25 bc
       0.12999827 -0.12978168 0.06917502 -0.0100817485
000240 45 fd 0f 3e 50 7c ab 3d 08 ad fe bc fb 59 88 3c
       0.14061458 0.0837332 -0.031088367 0.016644469
000250 f4 be 84 3c 29 14 15 3e 3c 03 f9 bd c9 e9 e1 3d
       0.016204335 0.14558472 -0.1215882 0.11030919
000260 ad 61 5c 3d b8 2d 3b b7 a5 20 fc bd ee 50 bb bd
       0.05380409 -1.1156713e-05 -0.12310914 -0.091462955
000270 1f 69 c1 bc dd bc 1a 3d 0b 8e 08 3c fa c1 35 3e
       -0.023609696 0.03777777 0.008334647 0.17749777
000280 11 ab 08 3d 7e 29 ea 3c 8c 44 bb 3b b4 57 3d bc
       0.033366267 0.028584238 0.0057149585 -0.011556555
000290 fc 3d 06 3d d3 58 de 3d bd c9 10 3e 26 69 de 3d
       0.032773957 0.108567856 0.14139457 0.10859899
0002a0 e2 dc e7 3d f7 97 ab 3d fb 50 d9 3d 5c a3 02 be
       0.11321427 0.08378594 0.10611149 -0.12757629
0002b0 b7 48 49 bd 57 a6 99 bc 1c 7e 8d 3d 04 7d bd bd
       -0.049141612 -0.018756075 0.06908819 -0.092523605
0002c0 88 2b 04 3e 9b 1f a9 bd f0 84 90 3a 25 c8 bc bc
       0.12907231 -0.082579814 0.0011025947 -0.023044655
0002d0 d7 b5 f1 bd f0 bb eb bd 38 8f 2f 3d 84 07 92 3c
       -0.11802261 -0.115104556 0.042861193 0.01782585
0002e0 bc e8 df bd 00 ff fd 3c f9 1f c4 bd 3d 19 7d 3d
       -0.109330624 0.031005383 -0.09576411 0.061791647
0002f0 6c a7 c7 bc 2c 8c 63 bd 1c 48 e8 3b 65 80 6c 3c
       -0.024371825 -0.0555536 0.007088674 0.0144349085
000300 12 92 d0 bd 37 b5 b0 3d 69 69 46 3c 68 d6 4a bd
       -0.10184111 0.08628314 0.012110093 -0.04952088
000310 d5 44 1d 3d 76 a5 4d 3d 14 fa 10 bd e2 02 6f 3c
       0.03839572 0.050206624 -0.035394743 0.01458809
000320 95 b0 40 3e 6a 4f a7 3c 48 85 91 3d ab 46 91 3d
       0.1881736 0.02042361 0.071054995 0.07093557
000330 d1 37 1d 3d 2e 8e 47 ba 32 9a eb 3d 80 de ab bd
       0.03838331 -0.0007612434 0.1150402 -0.08392048
000340 10 1f 18 3d ac fa 07 be ea 92 24 3d e6 d5 c6 3c
       0.037139 -0.13279217 0.04017917 0.024271917
000350 87 a6 86 bd 87 b8 a2 3c 7c e1 1f bd 83 34 15 be
       -0.06574731 0.01986338 -0.039033398 -0.14570813
000360 c0 21 4c bd 9b 29 7a 3d 8b eb 0d 3e 1f db 10 3e
       -0.049836874 0.061074834 0.13859384 0.14146088
000370 07 fa 1f bd f2 4f 02 3e 2c d9 91 3d 9c ec 3a 3e
       -0.039056804 0.12725809 0.071215004 0.18254322
000380 e5 52 2c 3e db d2 28 3e bd 0d 79 bd 12 05 e8 3c
       0.16828497 0.16486685 -0.060804117 0.02832273
000390 d9 fd 0e 3e fc d6 65 bb f8 8a cf bd 86 a4 06 3e
       0.13964023 -0.0035070768 -0.10133928 0.13148698
0003a0 65 06 ae 3d ce a6 d9 3d cf 5c 84 3d 17 11 06 be
       0.084973134 0.106275186 0.06463014 -0.13092457
0003b0 71 32 9a 3d db 4c dd 3d c3 8a a9 bc cb d5 f4 bc
       0.07529152 0.10805675 -0.02069605 -0.0298871
0003c0 5e 2c 1e 3d ec 21 19 be e3 60 e3 bc 5c 3d d0 3d
       0.03861653 -0.14954346 -0.02775616 0.10167953
0003d0 0c 58 e2 3d 5d 96 fb 3d 13 67 39 bd 58 37 c4 3d
       0.1105195 0.12284539 -0.045264315 0.095808685
0003e0 f0 eb 31 bd 9d 00 9d bd db 87 a6 bd 19 05 30 3c
       -0.0434379 -0.076661326 -0.08131381 0.010743403
0003f0 fc 66 52 3e e4 22 80 3e 8a 5b 15 3e dd 34 06 3d
       0.20547098 0.2502662 0.145857 0.032765258

conv2.bias f4 [16]
000000 68 53 bb 3d 5d 7d ed bb 7f f6 e9 bd db 8a cc bb
       0.09146768 -0.0072476105 -0.114239685 -0.006242139
000010 79 d2 9a 3e 61 65 c9 3d 1d fa 3b bd a3 d6 b5 bd
       0.30238703 0.098337896 -0.045892823 -0.08878829
000020 d9 b7 04 be 3b 4f ac bd a5 04 6c bd 9b f4 a8 bd
       -0.12960757 -0.084135495 -0.057621617 -0.0824978
000030 20 33 e6 3d ad cc b0 3d 8a ee fe 3c 2c d5 1e bd
       0.1124022 0.08632789 0.031119604 -0.038777515

fc1.weight f4 [120, 400]
000000 cf cc 64 3d a3 80 80 3c b3 a1 10 bd ef 1c ef 3c
       0.055859383 0.015686339 -0.03531046 0.029188601
000010 4d 6a 94 3d ea 24 5d 3c 66 b9 5d 3d c8 1d 24 bd
       0.07246838 0.0134975705 0.054131888 -0.040067464
000020 cb 2f 0b bd 8d e9 c7 bc ce 38 27 bc f6 8b 9f bc
       -0.033981126 -0.024403358 -0.010206414 -0.019475918
000030 b7 9a 38 3b f5 ce d3 3b 76 6c 84 3c 6d ae 2f bc
       0.002816839 0.00646388 0.016165 -0.010722739
000040 ce eb ce bb 05 59 4a bd 38 0b d0 b9 c3 40 3b bc
       -0.006314731 -0.049401302 -0.0003968121 -0.011429015
000050 75 e0 d6 3c bf 93 c0 3c 32 69 4c bc ea 59 59 bd
       0.026230076 0.02350795 -0.012476252 -0.053064264
000060 10 e3 1f 3d 4e 01 7d bb e0 cb 1a 3d 18 b9 54 b9
       0.039034903 -0.0038605514 0.037792087 -0.00020286848
000070 19 ac 01 3c 90 de a0 3c a2 fd 05 bd e6 e6 c1 3c
       0.007914566 0.019637376 -0.032712586 0.023669671
000080 d2 2a 57 3d 78 96 a1 bc e9 0b 23 3d 43 38 07 3d
       0.05253107 -0.01972507 0.03980628 0.03301264
000090 a0 d4 8e 3c 06 88 95 3d 86 19 45 bd 6f b1 4b 3c
       0.017435372 0.07301335 -0.048120044 0.01243244
0000a0 69 29 16 3d 2a 00 0d 3d 4c dc 2d bd bd 6c 2b bd
       0.036660586 0.034423985 -0.04244642 -0.041851748
0000b0 be e2 14 3d e4 5d de 3c 1e c6 9a 3c 8f 2b 7d 3c
       0.03634905 0.02714438 0.018893298 0.01545228
0000c0 41 c5 3a 3c 21 70 90 3b 8e 38 11 3d a1 b5 f5 bc
       0.011399568 0.004407898 0.035454325 -0.029993834
0000d0 b8 31 03 bd 6c d0 56 bc e8 be e6 bc df cf 3c bc
       -0.032029837 -0.013111215 -0.028167203 -0.01152417
0000e0 99 3c 2b bc f3 e8 03 bc 9a 9f 03 bd 79 17 49 3d
       -0.010451459 -0.008051145 -0.03213463 0.04909465
0000f0 95 ad 32 bc d6 70 30 bd b8 45 d0 3c 98 53 25 3c
       -0.010905643 -0.04307636 0.02542387 0.010090731
000100 51 b7 b4 bb 9e b0 3b bd 03 14 0c 3c f8 cc c9 bc
       -0.005515017 -0.045822732 0.008549693 -0.02463387
000110 52 b1 4e 3d 91 58 0a 3d fb 95 a8 bc 44 27 f3 3c
       0.050462075 0.03377587 -0.020579329 0.02968181
000120 08 b9 b9 bc 39 56 d9 3b 9b e1 0c bd 24 1f 12 bc
       -0.022671238 0.006632593 -0.03439484 -0.008918557
000130 6d 00 dc 3c 64 6d c7 bc cd 07 27 bc 29 75 a3 b9
       0.026855672 -0.024344154 -0.010194731 -0.00031177074
000140 bd cb 47 bd 0f 89 e9 3c 72 a6 72 bc 41 c2 29 bd
       -0.048778284 0.028507737 -0.0148101915 -0.04144502
000150 9a bf bf bc 0b b6 28 bc c7 5f a3 3c 70 c4 e4 bc
       -0.023406792 -0.010297309 0.019943131 -0.0279257
000160 b4 c4 55 3d da 86 ec 3c 03 e3 47 3d a7 b3 14 3d
       0.052189544 0.028872896 0.04880048 0.036304142
000170 bd 67 a7 3c 02 e8 5b 3d d6 5d a0 bc a8 b9 ec 3b
       0.020435208 0.053688057 -0.019575994 0.0072242804
000180 df 9e 64 ba 2d 7d 13 bd c1 27 2b 3c fd 08 e2 3b
       -0.00087211834 -0.03600805 0.01044649 0.006898044
000190 64 5f 8d bc 96 a4 48 3d 3a 9e 52 bd 9c 2f 5f bd
       -0.0172574 0.048985086 -0.051420428 -0.054488763
0001a0 7b c6 bf bc da 4b 33 bd 25 4d 4b 3d cd c0 83 bc
       -0.023410073 -0.04377351 0.049634118 -0.016083146
0001b0 fb 04 a2 bc b6 4a 20 3d f8 c8 bf bc f3 39 21 bd
       -0.019777765 0.03913375 -0.023411259 -0.039361905
0001c0 e2 96 6f 3d 6b 00 e3 ba 25 14 00 bd 7e ab 22 3d
       0.058493502 -0.001731885 -0.03126921 0.03971433
0001d0 49 ee fa 3b 65 28 19 3c 71 ea 45 bd a8 7a 9a bc
       0.0076578003 0.00934801 -0.048319284 -0.018857315
0001e0 ca 2b ac 3b a2 1d d3 3c d0 33 07 3c b9 3f 45 bd
       0.0052542435 0.025770966 0.008252099 -0.048156474
0001f0 9b 9e aa bc 6c 76 78 3c ac 27 57 3d dc 97 32 bd
       -0.020827582 0.015164953 0.05252807 -0.043601856
000200 29 9c 44 bd 40 48 02 bd 87 fa 25 bd a0 b8 95 3b
       -0.04800049 -0.031807184 -0.040522125 0.004569128
000210 e2 b7 ce bc f1 6d 23 bd f1 b7 e6 bc 4d 64 11 3c
       -0.025234167 -0.03989977 -0.028163882 0.008874011
000220 d0 a9 46 bd 92 e6 0b bd 8a 93 41 3b f7 70 1c 3d
       -0.04850179 -0.034155436 0.0029537403 0.03819367
000230 16 7f 49 3b 8f d9 da 3c 63 73 01 3c 99 1b 38 3d
       0.0030745915 0.026715068 0.0079010455 0.044948194
000240 ce 7b 52 bc 4a 8f cf 3b 46 9e d6 bc 9f 64 83 bc
       -0.0128469 0.00633422 -0.026198518 -0.01603919
000250 bb f1 84 3b 04 1a 00 bd fd 26 2e bd 7b 08 92 bc
       0.004057137 -0.03127481 -0.04251765 -0.01782631
000260 ad 24 3b 3d 42 f2 1d 3d 57 71 a7 bc 14 c7 42 3d
       0.045689274 0.038561113 -0.020439787 0.047553137
000270 b5 45 37 3c 19 f5 19 3d 93 bc da b9 4f bc 1b 3d
       0.011186053 0.03758726 -0.000417207 0.038021382
000280 ae f9 0e bd 12 a8 15 3d a8 ee 04 bc 41 a7 ed 3c
       -0.03490608 0.036537237 -0.008113541 0.029010417
000290 38 49 3e bd ca 54 4d 3d 73 a4 8a bb 3a f9 11 bd
       -0.046456546 0.05012969 -0.0042310297 -0.03563807
0002a0 12 71 d0 bc 06 b8 6e 3b 07 a9 e0 3c 72 f5 5e bc
       -0.025444541 0.0036425604 0.027424349 -0.013608323
0002b0 10 33 08 bd 28 10 3b bd eb ac c7 bc cd 4a bf 3c
       -0.033251822 -0.045669705 -0.024374446 0.023351097
0002c0 e5 3a 97 bc ac ca 2f bd a8 29 13 bd 57 98 31 bd
       -0.0184607 -0.042917892 -0.0359284 -0.043358173
0002d0 51 9d 9f bc e2 96 68 bb 45 7a 99 3c 94 0e 3b 3d
       -0.019484194 -0.0035490324 0.01873506 0.0456682
0002e0 0a c6 2f bd 61 e5 19 bd ff 2b e0 3c a8 63 da bc
       -0.042913474 -0.03757227 0.027364729 -0.026658848
0002f0 10 8a 4a bc 93 f9 0c bd 42 5c 0c bd a7 be 2a bc
       -0.012362018 -0.0344177 -0.03426767 -0.010421432
000300 a3 fb bc 3c bb d3 84 3c 60 41 12 bd 60 f9 24 3d
       0.023069208 0.016214242 -0.035706878 0.040276885
000310 93 77 32 bd a0 1d dd 3c 6b 9d 9d 3c 27 84 6d 3c
       -0.043571066 0.026991665 0.019240102 0.01449684
000320 85 14 cf bc 3d 24 51 bd c4 6d b0 3c 18 d7 4b 3d
       -0.02527834 -0.05105995 0.021536715 0.049765676
000330 d8 65 a8 3a 07 eb 36 3d c5 f7 8b 3c 61 14 31 bc
       0.0012847735 0.044657733 0.01708592 -0.010808081
000340 e6 95 30 bc 82 ca 1d 3d 13 c7 4b bb 37 60 01 bd
       -0.010777926 0.038523205 -0.0031094 -0.0315859
000350 3a e2 d9 bc a9 82 cc 3c 2a 71 d1 3b 53 87 09 bd
       -0.026597131 0.024964647 0.006391664 -0.03357632
000360 3f 82 d3 bc ce 24 f2 3c 02 7d 52 3c 57 f7 44 bb
       -0.025818942 0.029558565 0.012847187 -0.0030054653
000370 83 37 24 3d 0e 4e 08 bd 7d 1f 49 bd fd 35 67 3c
       0.040092003 -0.033277564 -0.049102295 0.014111993
000380 90 ed 33 bd fe 01 ee 3c ce 14 2c bd 10 65 20 3d
       -0.04392773 0.029053684 -0.04201203 0.03915888
000390 d8 f8 81 3c 58 29 b5 bb 6d 68 cc bc 46 3d 9e 3b
       0.015865728 -0.00552861 -0.024952138 0.0048290817
0003a0 35 67 f1 3c 0b 81 2b 3d b4 3e d2 bc d8 52 93 bb
       0.029468158 0.04187111 -0.025664665 -0.0044959597
0003b0 26 89 97 bc 0d 07 97 ba 27 2d 2f bc ca 21 4a bc
       -0.018498015 -0.0011522487 -0.0106919175 -0.0123371575
0003c0 f2 d1 9d 3c 1a 3e cb bc 8c 2d 40 3d 08 6f 9a 3c
       0.019265149 -0.024809886 0.046918437 0.018851772
0003d0 64 df ec 3c 60 ec 50 3b 15 45 44 bd 3c 09 ec 3c
       0.028915115 0.0031879172 -0.047917444 0.028812997
0003e0 ca db e3 bc a1 4e f4 3b f9 21 07 3d 58 13 02 bd
       -0.027814765 0.0074556624 0.032991383 -0.03175673
0003f0 10 6f 78 bc 84 4d a2 3c 34 57 f2 bc 6d ad f8 3c
       -0.015163198 0.019812353 -0.029582597 0.030356133

fc1.bias f4 [120]
000000 64 24 6e bd b4 aa 46 bd d5 b1 87 3d aa 62 49 3d
       -0.058140174 -0.04850264 0.06625716 0.04916636
000010 66 74 a6 bc 63 bb 37 bc 63 14 59 3a 44 00 e0 39
       -0.020319175 -0.01121411 0.0008280931 0.00042724807
000020 06 e3 54 3d 61 ba 17 bd 38 fb 66 3d e8 ed 49 bd
       0.05197432 -0.03704298 0.056391925 -0.04929915
000030 24 83 8b bc a2 61 b0 bc fb 2c 3e 3c 72 cd 2d bd
       -0.017030306 -0.02153093 0.011607404 -0.042432256
000040 72 c6 fc bb 67 bb 43 bc 46 24 33 3d bf a1 e4 bc
       -0.007714086 -0.011946536 0.043735765 -0.027909158
000050 1b f0 5f 3d ab 96 fe bc 27 ed 80 3c dd 8f f1 bb
       0.05467234 -0.031077703 0.015738083 -0.007371886
000060 4d 5e 5a bc c2 d8 82 3d eb ba 94 ba d3 7a c5 3c
       -0.013328147 0.063889995 -0.001134721 0.024106419
000070 67 b2 30 bd a5 3c 03 3d a1 c7 0d bd a3 b3 09 3d
       -0.043138888 0.032040257 -0.03461421 0.03361858
000080 7f 9b b8 bc 23 96 06 bd a5 37 2c 3d 7f 5b f7 3b
       -0.022535084 -0.032858025 0.042045254 0.007548749
000090 fd d1 28 3d fc 09 35 3d 6c 63 27 bd 75 db cd bc
       0.041215885 0.044198975 -0.0408663 -0.02512906
0000a0 89 10 ba 3c 7f dc 37 3d 7d 16 35 3d 7b da 64 3c
       0.022712963 0.044888016 0.0442109 0.013968105
0000b0 af 8f 3e 3d c4 c1 c0 3c 25 37 ea 3c 74 e9 28 bb
       0.046523746 0.023529895 0.028590748 -0.0025773915
0000c0 0d 5f 2d 3d 5b 79 38 bd 96 0b 11 3b 42 e6 ce 3b
       0.042326976 -0.04503761 0.002213215 0.00631407
0000d0 f9 c7 91 bc fb a0 68 3d e5 59 0a bd 88 6d 22 bb
       -0.01779555 0.056794148 -0.033777136 -0.0024784524
0000e0 5d 81 42 bb 6f 3c 42 3d bb 70 9c 3b 7f 43 0d 3d
       -0.0029679157 0.047420915 0.0047741807 0.034488197
0000f0 28 ec 0c 3d 58 1c 14 bb 1d 74 62 3d bd ee 15 3d
       0.034404904 -0.0022599902 0.055286516 0.03660463
000100 98 83 0b 3d f3 29 a6 3c 89 a5 0b 3d 49 39 04 3d
       0.034061044 0.020283675 0.034093414 0.032281194
000110 cb 1c c0 3c ee e5 08 bd ab bd 75 bc e6 56 a1 3c
       0.02345123 -0.033422403 -0.014998834 0.019694757
000120 73 29 9a bc 38 23 6d 3c c0 27 f5 3c 0b 11 50 3d
       -0.018818593 0.014473729 0.02992618 0.050797503
000130 aa 36 89 bc 35 79 94 3c 5d 34 33 3d 9a 1b a5 ba
       -0.016749699 0.018124202 0.04375111 -0.0012596727
000140 e2 cf c9 b8 ab 53 c5 3c 6e 3c 63 bc 3e 38 f6 ba
       -9.623148e-05 0.024087748 -0.013869388 -0.0018785072
000150 27 da be 3b 72 8e ae bc e9 ca 04 3d 99 3a 7a 3c
       0.0058243456 -0.021308158 0.032420073 0.01527276
000160 52 80 76 3d ba 1d ee bb b1 76 91 bc d1 85 5c bd
       0.06018097 -0.0072667273 -0.017756792 -0.053838555
000170 b9 53 a2 bc 66 3d 4a 3c 48 a8 9d bb ad f5 d7 3c
       -0.019815313 0.01234374 -0.0048113205 0.026362265
000180 d8 b6 56 3d 43 9f a3 bc 38 3a 82 3c 9d 5f 76 3b
       0.052420467 -0.019973403 0.015896901 0.003759361
000190 46 49 08 3d 7e 66 3f 3d 5c 74 5f bb 5f 49 0a 3d
       0.033273004 0.046728604 -0.0034096455 0.03376138
0001a0 62 ae 95 bc de d1 15 3d f5 bd c3 3b 68 75 17 bd
       -0.018271629 0.036577098 0.0059735724 -0.0369772
0001b0 bb d5 39 bc f8 83 24 bc 6d fe 2b 3c 93 54 2d 3c
       -0.011342461 -0.010041229 0.010497672 0.010579246
0001c0 ca 94 3e bd 2e 5f b4 bb bf 1f 04 3d 31 d2 10 bd
       -0.046528615 -0.0055045104 0.032256838 -0.035356704
0001d0 a7 71 31 bd a3 ce f5 bc fc ec 33 3d c7 15 84 3d
       -0.043321278 -0.030005759 0.043927178 0.06449466

fc2.weight f4 [84, 120]
000000 48 64 3d 3d 7d dc 69 3a f2 19 0b bc 92 d3 bd bc
       0.046238214 0.00089211 -0.008490073 -0.023172174
000010 4f 0a 2b 3d c2 c8 72 bd e8 93 a8 bd 3f 4c 3b 3b
       0.041757878 -0.05927349 -0.08231336 0.0028579382
000020 d7 76 e4 bc 13 99 4d bd f7 03 b9 bd ef 52 7b bd
       -0.027888699 -0.05019481 -0.09033959 -0.06135839
000030 c3 85 80 bd ab 32 57 3d 2d 6d 25 3d d9 a0 ba 3d
       -0.06275513 0.052538555 0.04038732 0.091127105
000040 5e 1d f5 3c 73 ba 95 3d d1 b9 a2 bc ef 07 31 bd
       0.02992123 0.07310953 -0.019863995 -0.043220457
000050 20 3f 56 3c ab 5a 8a bd 7a 0c ee bc 18 21 96 3c
       0.013076574 -0.06755575 -0.029058684 0.018326327
000060 b2 ec b3 3b 2f ec 14 bd be 0d a2 3d 3b 95 a6 bd
       0.0054908628 -0.036358055 0.07912777 -0.08133932
000070 cd 03 c2 3d b6 59 b7 bd ea 31 e2 3d 9b 96 46 3d
       0.09473381 -0.08952658 0.110446766 0.048483472
000080 30 ff c5 bc cc 2d c4 bd 63 b4 c2 3d 7a 43 9b bd
       -0.024169534 -0.095790476 0.09507062 -0.075812295
000090 63 4d fa bc 06 30 f0 bd 4a e5 ae bd 46 b2 02 bd
       -0.030554479 -0.1172791 -0.08539827 -0.031908296
0000a0 b3 9a 8f 3c 40 9c 36 3c a3 a4 14 3d 73 20 50 bc
       0.017529821 0.011145651 0.036289822 -0.012703049
0000b0 3d 81 75 bd 35 07 36 3d 6c 65 3a 3d 02 6e 8b 3d
       -0.059937704 0.044440467 0.04550688 0.06808092
0000c0 3a ab dc bc f7 1d 87 3d 47 64 d6 3c 87 20 5b 3d
       -0.026937116 0.06597512 0.026170863 0.053497817
0000d0 a5 ea 70 3d 00 f3 42 bc 4e e9 72 bd 03 9d 88 bd
       0.058817524 -0.011898756 -0.059304528 -0.066705726
0000e0 72 82 89 3d c9 93 df 3d 70 09 d1 3c cb b6 a1 bc
       0.067143336 0.1091686 0.025517195 -0.019740483
0000f0 3e 68 72 3d e4 d6 d8 bd db b1 95 3c c6 13 74 3d
       0.059181444 -0.10587862 0.018273285 0.05958917
000100 ff 55 38 bd ec d6 d8 3d cd 62 0c 3c ca 36 d4 3c
       -0.045003887 0.10587868 0.008568478 0.025905032
000110 ef c0 d0 bc ef bb 40 3b f5 e0 b6 ba 76 71 7a bd
       -0.025482623 0.0029408892 -0.001395254 -0.06114336
000120 df f1 5b ba ca 3c 35 3c 34 74 b5 3d 84 29 4e bb
       -0.00083902286 0.0110618565 0.088600546 -0.003145785
000130 a0 11 54 bd 15 4b 75 3d 94 54 03 bc e4 b8 18 3c
       -0.05177462 0.059886057 -0.00801577 0.009321425
000140 44 b4 97 3d 18 16 bf 3d fe 90 19 3c ec c4 96 3d
       0.0740743 0.09330386 0.009372948 0.073617786
000150 43 ad a0 bd 34 db db 3c bd 59 58 3d 6b 58 3c 3d
       -0.07845547 0.026837923 0.052819956 0.04598276
000160 71 19 32 bd e4 c5 74 bd 5d 87 c5 3d 5c ec aa 3d
       -0.043481294 -0.059759036 0.09644959 0.08345863
000170 bd db dc bc 84 42 41 3d 70 0b dc 3c 96 ec 4c 3d
       -0.026960248 0.047182575 0.026860923 0.050030313
000180 68 58 d0 bd 77 e7 85 bd ab 18 80 3d 4c 00 fe 3b
       -0.10173112 -0.06538289 0.06254705 0.0077515002
000190 47 f7 c1 3c 46 db bb bd 96 41 82 3d d0 0b 0b 3d
       0.023677481 -0.091726825 0.06360166 0.033946812
0001a0 b1 e4 36 3c 69 f5 5e bc 9f bb 3e 3c 89 fe 60 3d
       0.011162923 -0.013608315 0.011641412 0.054930244
0001b0 6e 93 7d 3c 87 75 5f bc fd 5f 17 bd b3 6e bc 3d
       0.0154770445 -0.013638861 -0.036956776 0.09200802
0001c0 0e 00 77 3c a3 1c f7 3c b9 93 a3 3d 34 65 30 bd
       0.015075697 0.030165022 0.0798716 -0.043065265
0001d0 05 47 49 bd ec 5b 92 3d 04 32 ea bc d7 c3 89 3d
       -0.049139995 0.07146439 -0.028588302 0.067268066
0001e0 04 c3 06 3b b2 f0 af bd a7 0f 86 3d f4 eb c8 3d
       0.0020563016 -0.08590831 0.06545954 0.098106295
0001f0 fd e9 f0 bc dc 74 67 3d 9b d0 34 3c 85 e3 39 3d
       -0.02940845 0.05650793 0.011036064 0.045382995
000200 97 33 be 3d 3f 62 a6 3c da c1 91 3d 6a 26 0e 3d
       0.09287184 0.02031052 0.071170524 0.034704603
000210 c2 f7 9f 3d 63 9e 81 bd e7 49 ec bd e3 87 b8 bd
       0.07810928 -0.06329038 -0.11537533 -0.09010293
000220 f8 98 80 3d 71 af 40 3c 61 74 3a 3d 9b 51 d2 3d
       0.062791765 0.0117605785 0.045521144 0.10269471
000230 02 22 aa bd 83 80 7e 3d 66 dd 80 3d 00 6d 46 3d
       -0.08307268 0.062134277 0.062922284 0.048443794
000240 50 a7 e0 3d 91 38 db bc 34 b9 0f bd 4c 97 bf bb
       0.10969412 -0.026760371 -0.035088733 -0.0058468934
000250 09 e6 c6 3c c5 48 92 3d 1d 23 ec 3c 85 84 3c 3b
       0.024279611 0.07142786 0.028825337 0.0028765511
000260 0c 90 8c 3d b8 44 da bb 61 3e dc bc 7a 60 b1 3d
       0.06863412 -0.006661024 -0.026885213 0.086609796
000270 7b 78 73 3d 81 fd 34 bd 4c cc aa bd 5c 18 ef bc
       0.05944107 -0.044187073 -0.08339748 -0.02918642
000280 c0 0f 80 3c 83 da a9 3d 1f 9b c3 bd 72 bd b5 bc
       0.01563251 0.08293631 -0.095510714 -0.022185061
000290 14 5b 98 bd aa 3c 54 bd 2a ec 52 3d e3 83 59 3d
       -0.07439247 -0.051815666 0.051494755 0.053104293
0002a0 af 50 92 bd e3 6e 39 3d 1b 00 1d 3d dd 6f a0 3c
       -0.071442954 0.045271765 0.03833018 0.01958459
0002b0 18 4d 0f bd d1 37 27 3d b1 35 01 bb 60 92 81 bb
       -0.03498563 0.040824715 -0.001971584 -0.003954217
0002c0 0d 97 9c 3d 0b 34 54 3d 88 76 9a 3d 7f 90 10 bd
       0.07645998 0.051807445 0.07542139 -0.035294052
0002d0 f7 9f 0b 3d 23 fe 96 bd 9a a4 6e bd e8 6c af bd
       0.0340881 -0.073726915 -0.058262445 -0.08565694
0002e0 19 19 84 bd 14 9b 72 bd 2e cd 09 3d f7 29 79 3c
       -0.064500995 -0.059229925 0.03364294 0.015207759
0002f0 f1 d3 91 3b 12 aa 04 3d 22 01 47 bd 08 5c 38 bd
       0.004450314 0.032388754 -0.048585065 -0.045009643
000300 db b8 cf 3d 08 41 36 3d c8 4d 6e 3d 12 15 f4 bd
       0.1014268 0.044495612 0.058179647 -0.11918081
000310 92 b4 9b bd dd 17 b9 3d c5 68 36 bc 26 99 1e 3d
       -0.076028004 0.09037755 -0.011133377 0.038720272
000320 d2 f3 95 bd a7 12 9f 3d 20 9d 55 3d b1 b8 01 3c
       -0.07321896 0.077672295 0.0521518 0.007917569
000330 1a 3b d3 bd 03 ef 4d 3d 82 e7 8f 3d 95 50 cc 3d
       -0.10314007 0.050276767 0.070265785 0.09976307
000340 fb 38 93 bc 2f 73 49 bd c8 f4 c3 3d 47 9a 9a bd
       -0.017971506 -0.049182113 0.09568173 -0.07548957
000350 c6 49 84 bd b0 9c 48 bd ec 0d 52 3d cb 9c a3 3c
       -0.06459384 -0.048977554 0.05128281 0.019972226
000360 2f 82 87 bd 38 e4 89 3d 3c 3f fc 3d 15 37 25 3d
       -0.066166274 0.067329824 0.123167485 0.040335733
000370 4d 97 c9 bd 6d 89 46 bd f0 0f aa bd 73 43 03 bd
       -0.098433115 -0.048470903 -0.08303821 -0.032046746
000380 dd 40 4d bc 26 bf 2c ba 24 60 43 bd e6 72 53 3d
       -0.012527672 -0.00065897626 -0.04769911 0.051623248
000390 c0 3f cb bb e5 10 98 3d 25 87 3b bc e8 0f 9d 3d
       -0.006202668 0.074250974 -0.011445795 0.076690495
0003a0 97 e9 af bd 75 2d 92 3d aa c6 33 bc 0b fc 0b bd
       -0.085894756 0.071375765 -0.010972658 -0.034175914
0003b0 15 31 c5 3c d4 73 a2 3d ef fd ef bc 5d 4f 41 bb
       0.024071256 0.07932249 -0.02929589 -0.0029496767
0003c0 0e e6 fe 3c aa 9b 9f bd 39 c7 91 bd e2 9c 54 bd
       0.031115558 -0.077933624 -0.07118077 -0.051907428
0003d0 bd fa b2 3d c8 c3 63 3d e3 25 78 3d 56 c8 9d bd
       0.08739231 0.055606633 0.060583007 -0.07704227
0003e0 a0 b6 21 bd b2 49 81 3d ed 08 7d bd 7b 2f 80 bd
       -0.039480805 0.063128844 -0.06177609 -0.06259056
0003f0 8a cb 75 bd a5 97 35 3c 58 b8 b4 3d 8c 04 2a 3d
       -0.060008563 0.011083518 0.08824223 0.041508242

fc2.bias f4 [84]
000000 be 05 91 bc 32 42 ed 3c 7b a3 4c bd c4 e2 a1 bd
       -0.017702933 0.028962228 -0.049960595 -0.0790458
000010 c8 6e 06 bd 34 e7 ad 3d c2 cf 9e 3d 8c 88 e0 bc
       -0.032820493 0.08491364 0.077544704 -0.02740886
000020 68 a9 ea 3d 89 95 f3 3c 50 82 e5 3c 27 28 98 3d
       0.11458093 0.02973439 0.02801624 0.074295335
000030 1d 61 a3 bd a3 5b 0a 3c d1 8f b5 bd e1 51 75 bd
       -0.07977507 0.008444699 -0.088653214 -0.05989254
000040 99 bf 98 3c f3 87 25 3d 29 9e 1f bc de c2 c9 3c
       0.018646048 0.040412854 -0.009742298 0.024629053
000050 ed 57 98 3d 42 19 ba 3d d1 51 5d 3d e3 8f 1c 3c
       0.074386455 0.09086849 0.054033104 0.00955579
000060 14 66 77 bd 63 0c f1 3c c8 68 0b 3d c1 f4 9f bd
       -0.060400084 0.029424852 0.034035474 -0.07810355
000070 dd 09 04 bd 83 77 06 3d 91 4c ed 3b e7 b3 5b 3d
       -0.03223597 0.03282882 0.0072417934 0.053638365
000080 8a 82 1e 3d 76 b3 1a bc 84 1a 8f bd a0 21 3f 3c
       0.03869871 -0.009442201 -0.06987479 0.011665732
000090 ac c0 b8 3d 91 81 a8 3d 13 c7 33 3d a9 15 91 bd
       0.09021124 0.08227838 0.043891024 -0.070842095
0000a0 ed ed 35 bd 66 70 ca bc d0 6c d6 3d b5 f0 e7 bc
       -0.044416357 -0.024711799 0.10469973 -0.02831302
0000b0 2a 2e 20 bd 0b 96 85 3a 8d cf fc 3b 10 66 bb bc
       -0.039106525 0.0010191811 0.0077151717 -0.022875816
0000c0 3f b8 5a 3d cc cb da 3d 04 b5 f7 bc a4 4c 84 3d
       0.053398367 0.106834024 -0.030237682 0.064599305
0000d0 d9 02 32 bd e1 83 1b bd 9d 9c e7 3c 14 49 c1 3d
       -0.043459747 -0.037967566 0.028272921 0.09437767
0000e0 39 ab fa bc f5 4f 77 bc 56 8d 7e 3d dd b2 9e 3d
       -0.030599223 -0.015094747 0.062146507 0.07748959
0000f0 d4 0d a2 3d 07 72 84 3d 0a 4c ec 3c a1 ad 85 3d
       0.07912794 0.064670615 0.028844852 0.06527258
000100 8e bd bd 3d 9a eb 6e bc 60 f2 51 3d 57 d7 c3 3d
       0.0926467 -0.014582539 0.051256537 0.09562557
000110 b4 18 fe 3d e4 75 9f bb a1 38 c1 3d cb 8f 05 ba
       0.124070555 -0.0048663486 0.09434629 -0.0005094974
000120 ef 81 a8 bd 7b 83 eb 3c 21 fc ac bd 0f fc bd 3d
       -0.08227908 0.028749218 -0.08446527 0.09276592
000130 3e 55 91 3d aa 0b b1 3d 0d 50 b8 bc 36 db 11 3d
       0.07096337 0.08644803 -0.022499109 0.035609446
000140 c9 f8 d3 bc a3 ad 0d 3c 7d 77 58 bd 51 be 57 3d
       -0.025875466 0.008647355 -0.052848328 0.052671734

fc3.weight f4 [10, 84]
000000 4a a8 62 bc ae 31 25 be 63 fe a0 39 c8 90 0a bd
       -0.013834069 -0.16132233 0.0003070711 -0.03382948
000010 90 b6 85 bd bd 62 64 bc 56 09 0d 3e 11 6e be bd
       -0.06528962 -0.013939557 0.13773093 -0.09298337
000020 28 b3 5c 3d 90 a7 39 3e cf 35 93 3d ae 77 ce 3d
       0.053881794 0.18130326 0.071879975 0.10081421
000030 18 aa 50 3e b7 a4 ac bd d0 d5 0e bd cb 36 5f 3d
       0.20377386 -0.08429854 -0.034871876 0.054495614
000040 a0 d1 bd 3d 3c 22 13 be 16 5a 88 3d ce 11 33 bb
       0.092684984 -0.14368528 0.066578075 -0.0027323845
000050 cd c9 cd 3c f0 36 c9 3d 50 0e 26 bd fb a1 5f 3e
       0.02512064 0.098249316 -0.040540993 0.21839134
000060 4c 3a 9f 3d 30 4b 3c be 0c 30 30 bc 96 b8 98 bd
       0.07774791 -0.18388057 -0.010753643 -0.07457082
000070 aa b5 01 bc dd 71 29 bd 7c 78 3a 3c 32 5f 12 bd
       -0.007916847 -0.041368354 0.011381265 -0.035735317
000080 f7 8d 16 bd 3f 10 15 3d bb 86 25 bd 16 6a fe bb
       -0.036756482 0.036392447 -0.040411692 -0.0077641113
000090 6e 36 06 be f7 e2 24 be 20 cf 33 3e c6 5f a8 bd
       -0.13106701 -0.16102205 0.1755948 -0.08221392
0000a0 48 a5 04 be 7c ed 36 bd 06 1a bd bc fb 5f eb 3c
       -0.12953675 -0.044660076 -0.023083698 0.02873229
0000b0 54 ae 82 3b ff 32 f6 bc 70 fd 0c 3e 42 42 fb bd
       0.0039880667 -0.030053614 0.13768554 -0.12268497
0000c0 62 90 52 bd 7e d9 83 bd 77 39 f6 bc 43 43 a4 3d
       -0.051407225 -0.06437968 -0.030056698 0.08020642
0000d0 b3 0b b6 bd eb d2 5b be 11 2b 7b bd 8b 58 4c 3e
       -0.0888895 -0.21467178 -0.06132037 0.19955651
0000e0 ab cf af 3d 59 78 5c 3d 8b 1e b5 bc 8f 42 77 3d
       0.085845314 0.05382571 -0.02210929 0.06036621
0000f0 75 e9 10 3d 10 f2 e3 bd 1e 8f 91 3c 60 6a fa 3d
       0.035378892 -0.11130154 0.017768439 0.12227321
000100 ee 56 9d 3c 03 a1 13 3e 9d e3 ba bd 27 15 2d 3e
       0.01920649 0.1441689 -0.09125445 0.169026
000110 ee 32 8e 3d e8 7a 58 bd 10 97 0e 3e f3 0f c2 3c
       0.06943308 -0.052851588 0.13924813 0.023689246
000120 63 05 4a 3d 1a a1 80 3e 50 bc 27 3c c1 14 0c be
       0.049321543 0.2512291 0.010237768 -0.13679792
000130 a6 d4 10 be 13 fb bd 3d e9 fe 52 bd ae 02 01 3c
       -0.14143619 0.09276404 -0.051512633 0.007874174
000140 76 37 1a 3d b4 bd 2c 3d cb 8a d1 3d 9f c2 c2 3d
       0.037650548 0.042173102 0.10231551 0.09509777
000150 1e c5 31 3e a4 cc 83 bd ae 89 6c bd 84 d5 a3 3c
       0.1736035 -0.064355165 -0.05774849 0.019999273
000160 10 5f 67 bd 99 92 1f be 6a 59 49 bd 23 ff 34 bd
       -0.056487143 -0.15583266 -0.049157538 -0.04418863
000170 44 e9 2f 3d d9 b0 df bd 8b 64 09 3e cc db 9b 3c
       0.04294707 -0.10922403 0.1341726 0.019025706
000180 8e b9 a5 bc 52 75 14 3d f4 f0 8d 3e 34 68 4c 3d
       -0.020230081 0.036244698 0.27722895 0.049904063
000190 85 1e a1 3d f5 0b 5a be d4 56 da bd c4 b7 8a 3c
       0.07867149 -0.21293624 -0.106610924 0.01693333
0001a0 8f 7a 70 3e 81 0d 30 3e 89 eb 9f bb 3c 3a 89 be
       0.23484252 0.17192651 -0.004880373 -0.26802242
0001b0 7e 13 cc bd f0 67 65 3d 41 d2 21 bd b5 45 38 3d
       -0.09964655 0.056007326 -0.039507154 0.044988353
0001c0 8f b0 45 3c 73 9a 74 bd 9a 3b f8 bd ad 85 aa 3d
       0.012066021 -0.059717607 -0.12120743 0.08326278
0001d0 a2 12 2e bd 38 21 30 be 83 5a 67 3d 8f 00 23 be
       -0.04249824 -0.17200172 0.056482803 -0.15918182
0001e0 6b 49 21 be d6 3c 83 bc 7f 8c ee 3d da 92 c5 3d
       -0.15750663 -0.01602022 0.11647891 0.0964715
0001f0 c9 da 22 3e 2e 29 96 bd a8 7d 0d be bc 52 b9 bb
       0.15903772 -0.07332073 -0.13817465 -0.0056556147
000200 c9 a9 04 bb 56 e0 2b 3e ca 84 7b bd f4 6c 48 3d
       -0.0020242801 0.16784796 -0.061405934 0.04893203
000210 c8 af 39 be 88 b5 59 3e fe fa 83 bd ae 03 70 3d
       -0.18133461 0.21260655 -0.06444357 0.05859726
000220 4c 54 33 bd 86 97 f4 3d 0e f1 35 be ab db 94 bc
       -0.043781564 0.11942963 -0.17767736 -0.018171152
000230 e1 6b e1 bc e3 a4 d1 bd 84 0a 8a bd ee 79 e1 3c
       -0.027517261 -0.10236528 -0.06740287 0.02752396
000240 8d 10 85 bc bd 6a 13 3e 93 ab db bd b2 c3 8f 3c
       -0.016243244 0.14396186 -0.107260846 0.01754937
000250 1c b8 7f 3c 23 f9 7e bd de f5 c6 3d 0a 6c cd bc
       0.01560786 -0.062249314 0.09714864 -0.025075931
000260 bd f2 21 be cb e6 dd 3d 3c ee 69 3c 0a eb 80 3c
       -0.15815254 0.10835036 0.014277991 0.015737075
000270 06 c3 79 3b 45 fc 8e 3e 5a fe c1 3d 85 1c 57 3e
       0.0038110628 0.2792684 0.09472342 0.21006973
000280 68 2f bb 3d 80 0f 01 bd 6e 69 ee bd 2e 1a 85 bc
       0.091399014 -0.031508923 -0.11641203 -0.016247835
000290 f6 3d 86 3d 04 8f 83 3d 06 b9 04 be 5f dd 27 bd
       0.06554787 0.064237624 -0.12961206 -0.0409826
0002a0 8a 7d 72 bd 92 7c 16 be 21 ee 2b 3d 18 13 18 bd
       -0.059201755 -0.14695957 0.041975144 -0.037127584
0002b0 a9 16 9b 3d 9c 53 84 3e ec 24 1d be 61 5e cc bd
       0.075726815 0.2584504 -0.15346116 -0.09978939
0002c0 2e 8e d9 3d 48 80 c9 3d bd 28 16 be ba 66 41 3d
       0.10622822 0.09838921 -0.14663978 0.04721711
0002d0 f5 91 ea bc b3 d1 c6 3d 93 ec 98 bd 81 5f 7f 3d
       -0.02863405 0.09707966 -0.07466998 0.06234694
0002e0 2d 58 bd 3c 44 98 c6 3a a0 fe c1 3d ae ab af bd
       0.023113335 0.001515158 0.09472394 -0.08577667
0002f0 b5 99 b4 bd 5c 06 b2 3d f1 57 87 3e ed 36 20 3d
       -0.0881838 0.08692619 0.2643428 0.03911488
000300 6b fd 5f 3d a6 29 1b 3e ff c8 a4 3c 8e 13 bc 3d
       0.054685038 0.15152606 0.020115374 0.09183417
000310 a2 7f df bd 2e 6d 5b bd 1c 2e 61 3d d0 72 d9 bd
       -0.10913016 -0.05357092 0.054975614 -0.10617602
000320 c2 c8 3c be 21 01 1f 3e b8 d6 b9 bd b6 95 54 3d
       -0.18435958 0.15527774 -0.090741575 0.051900588
000330 50 98 01 bd 03 b1 e4 bd 4d 98 8e bd 22 40 5f 3c
       -0.031639397 -0.11166575 -0.06962643 0.01362613
000340 3f 9b 10 3e 5f b8 3b 3b 46 ae 4f be 1b 33 b1 bb
       0.14121722 0.002864383 -0.20281324 -0.0054077036
000350 96 49 46 3d 0f 05 34 be 7b 87 1f bd 3f 4b ca 3d
       0.04841002 -0.17580055 -0.038947564 0.09877633
000360 97 d4 2b be bb d8 35 3e de dc 6f bd 13 60 f0 3b
       -0.16780315 0.17758457 -0.058560245 0.0073356717
000370 d0 2b 99 bd 7e c7 fa bc b1 ba cb 3d 0c ca 54 3e
       -0.0747906 -0.030612703 0.09947718 0.207802
000380 79 90 9f 3d 81 86 ac 3d c8 1b a0 bd 8a d5 3f 3e
       0.07791228 0.08424092 -0.07817799 0.18733802
000390 5f 12 b7 bd ac 8c 95 bd 85 7f 2f be 3f 41 4c 3d
       -0.08939051 -0.07302222 -0.17138489 0.04986691
0003a0 2a 7a 32 bc 89 9d 34 be e4 f4 8f 3c c9 c3 c9 bd
       -0.010893384 -0.1763822 0.017572828 -0.09851796
0003b0 ab 25 12 bd 97 bd 90 bd 53 f8 1a be 28 5f 52 3c
       -0.035680454 -0.070674114 -0.1513379 0.01284007
0003c0 ce b8 79 bc fb 40 4c be e7 43 c9 3d f7 10 4f be
       -0.015241815 -0.19946663 0.098274045 -0.20221315
0003d0 f1 9b 93 3d 41 8f fa 3c 65 4d 1f 3d 86 94 c0 bd
       0.07207478 0.030585887 0.03889217 -0.094033286
0003e0 05 92 37 bd 26 e3 e7 bd 06 3c fc 3b 6f d9 f8 bd
       -0.04481699 -0.11322622 0.007697585 -0.12150847
0003f0 39 43 2e be 86 43 69 3d fc 45 d8 bd be b7 b6 bd
       -0.17017831 0.05694916 -0.105602235 -0.08921765

fc3.bias f4 [10]
000000 df 64 26 bd 3a 44 ff ba ef b1 09 3e 8d d3 6c 3d
       -0.040623542 -0.0019475289 0.13446783 0.057818938
000010 9e 86 33 bd a3 2d ac bc d7 af 99 3c 33 9b d0 3c
       -0.043829553 -0.021017855 0.018760605 0.02546463
000020 ba 87 1d 3e c3 ae ce 3c
       0.15383807 0.025229817
